models/dr_stage.onnx (onnx, 512222 bytes, 25 tensors)

blocks.0.0.se.conv_reduce.bias f4 [8]
-0.01873649 -0.0040540313 -0.009980125 -0.0051515126 -0.024210019 -0.01773043 -0.014410386 -0.008939862
00000000: 447d 99bc aed7 84bb ae83 23bc 05ce a8bb
00000010: 1754 c6bc 683f 91bc 8a19 6cbc 8078 12bc

blocks.0.0.se.conv_expand.bias f4 [32]
0.18955453 1.0905168 0.5445589 -0.552462 0.49762407 1.8633898 0.43363374 0.87306625
0.5892482 0.26653057 0.6486996 -0.02278974 0.69198287 0.9355991 0.43761963 0.63002187
0.62589836 -0.030375753 -0.037717476 0.66668546 0.2868515 1.3523563 1.584353 0.23298554
0.4492752 1.0317055 0.7426903 0.49615008 0.31443295 1.2939895 -0.18001367 1.3187574
00000000: 951a 423e 0e96 8b3f 3668 0b3f 266e 0dbf
00000010: 95c8 fe3e 8f83 ee3f 3e05 de3e 4581 5f3f
00000020: f8d8 163f b276 883e 2d11 263f 8cb1 babc
00000030: ca25 313f 6c83 6f3f ae0f e03e 1d49 213f
00000040: e03a 203f 92d6 f8bc a47d 1abd e6ab 2a3f
00000050: 33de 923e 031a ad3f 14cc ca3f c393 6e3e
00000060: 6607 e63e ed0e 843f f420 3e3f 6207 fe3e
00000070: 5bfd a03e 73a1 a53f 8155 38be 0bcd a83f

blocks.1.0.se.conv_reduce.bias f4 [4]
0.002958487 -0.00035628534 -0.008803125 0.02479755
00000000: 2de3 413b cfcb bab9 fb3a 10bc 3b24 cb3c

blocks.1.1.se.conv_reduce.bias f4 [6]
0.00015411749 0.11681428 0.068564385 -0.00057418813 0.22358504 0.09561867
00000000: 999a 2139 533c ef3d 7c6b 8c3d 1d85 16ba
00000010: 7af3 643e b9d3 c33d

blocks.2.0.se.conv_reduce.bias f4 [6]
-0.0013113895 -0.0007066098 0.0002834805 0.011802025 0.0032419786 0.0008894337
00000000: eee2 abba c83b 39ba 1ca0 9439 485d 413c
00000010: 6077 543b e328 693a

blocks.2.1.se.conv_reduce.bias f4 [10]
0.1994443 0.14097992 0.19001459 0.1932325 0.25958258 0.08939771 0.10036142 0.14647432
0.15239856 0.035753395
00000000: 203b 4c3e 0a5d 103e 2f93 423e bede 453e
00000010: 02e8 843e 2616 b73d 4a8a cd3d 5dfd 153e
00000020: 5e0e 1c3e 2772 123d

blocks.3.0.se.conv_reduce.bias f4 [10]
-0.00077061827 -0.0016468243 -0.0010016313 0.0051261396 -0.004231764 -0.003503015 -0.0052518444 0.00411594
0.0036093453 -0.007218207
00000000: 5103 4aba 41da d7ba 2b49 83ba 2df9 a73b
00000010: 9caa 8abb d792 65bb aa17 acbb 02df 863b
00000020: c48a 6c3b b686 ecbb

blocks.3.1.se.conv_reduce.bias f4 [20]
0.0956427 0.20849743 0.09627176 0.15462835 0.12370845 0.017853228 0.08509699 0.09475309
0.24896175 0.1303445 0.086633265 -0.08974699 -0.05431623 0.08368902 0.053318024 0.014056679
0.14976184 0.0930265 0.19562635 0.0920989
00000000: 52e0 c33d 5a80 553e 212a c53d e556 1e3e
00000010: db5a fd3d ef40 923c 5547 ae3d e80d c23d
00000020: d4ef 7e3e 0779 053e c86c b13d 45cd b7bd
00000030: b27a 5ebd 2665 ab3d 0064 5a3d fc4d 663c
00000040: 2b5b 193e ad84 be3d 4652 483e 599e bc3d

blocks.3.2.se.conv_reduce.bias f4 [20]
0.10850677 0.047903046 0.10004706 0.071659714 0.19371629 0.10105541 0.10794065 0.16086562
0.0978708 0.12569167 0.15624113 0.09612175 0.017547635 0.069193795 0.061820462 0.14090782
0.12438286 0.0614344 0.02434285 0.08639098
00000000: cc38 de3d fc35 443d 79e5 cc3d 54c2 923d
00000010: 905d 463e 24f6 ce3d fd0f dd3d f5b9 243e
00000020: 7c70 c83d 51b5 003e adfd 1f3e 7bdb c43d
00000030: 0fc0 8f3c 7ab5 8d3d 7437 7d3d 244a 103e
00000040: 71bc fe3d a3a2 7b3d a86a c73c c1ed b03d

blocks.4.0.se.conv_reduce.bias f4 [20]
0.0004603037 -0.0013374307 0.00093276944 0.00022455832 0.00084595685 -0.0031338283 -0.00044596827 0.00039861805
0.00085323653 0.002656437 -0.0033175931 0.00017481919 -0.0065616886 -0.007780237 -0.0018309344 -0.003381665
0.00011252744 -0.0030978315 -0.0027044811 -0.0036671695
00000000: eb54 f139 ba4c afba 1985 743a 6a77 6b39
00000010: 34c3 5d3a ea60 4dbb d9d0 e9b9 9cfd d039
00000020: bcab 5f3a 9e17 2e3b fa6b 59bb ab4f 3739
00000030: 6f03 d7bb 5cf1 febb f7fb efba ed9e 5dbb
00000040: b6fc eb38 fd04 4bbb aa3d 31bb e554 70bb

blocks.4.1.se.conv_reduce.bias f4 [28]
0.12133823 0.026244188 0.071768664 0.10004975 0.04684476 0.03310767 0.071328774 0.1435871
0.039422058 0.13455756 0.0704307 0.054989617 0.027446426 0.0068319323 0.066903956 0.04898348
0.081086926 0.06214849 0.048836768 0.06257662 0.055465296 0.094042875 0.07703047 0.032291144
0.104980744 0.03185512 0.028088704 0.06711315
00000000: 2e80 f83d 0dfe d63c 73fb 923d e2e6 cc3d
00000010: 4be0 3f3d e89b 073d d214 923d 7f08 133e
00000020: 0679 213d 75c9 093e f93d 903d cb3c 613d
00000030: 54d7 e03c 67de df3b f104 893d e7a2 483d
00000040: e710 a63d 6a8f 7e3d 1009 483d 2c28 803d
00000050: 942f 633d 8d99 c03d 27c2 9d3d b843 043d
00000060: 2500 d73d 847a 023d 481a e63c 9f72 893d

blocks.4.2.se.conv_reduce.bias f4 [28]
0.030053664 0.14354038 0.035903372 0.1272742 0.092870764 0.12384154 0.09535609 0.002877599
0.05016625 -0.019616405 0.1676738 0.08051112 -0.028371448 0.100591294 0.18055731 0.04806871
0.10668409 0.10444743 0.05765681 0.11698694 0.11292018 0.1359829 0.17166312 0.015755456
-0.017680861 0.10163141 0.24329424 0.124691255
00000000: 1a33 f63c 40fc 123e 6a0f 133d 2b54 023e
00000010: 0733 be3d a2a0 fd3d 0e4a c33d 1a96 3c3b
00000020: 207b 4d3d 95b2 a0bc aeb2 2b3e 04e3 a43d
00000030: 3d6b e8bc cf02 ce3d 04e4 383e b2e3 443d
00000040: 307d da3d 89e8 d53d 8c29 6c3d d996 ef3d
00000050: b242 e73d 1a3f 0b3e 75c8 2f3e 9611 813c
00000060: 74d7 90bc 2124 d03d 2022 793e 215e ff3d

blocks.5.0.se.conv_reduce.bias f4 [28]
0.0024738614 0.0021989006 0.0024830506 0.0024688721 -0.0022137302 0.0022162038 0.0024855572 0.0019561648
0.0023636317 0.0024980837 0.002476723 0.0024711662 0.0024727643 0.0024412798 0.0061785993 0.0024314092
0.0024507549 0.009919959 0.0024857193 0.0024692386 -0.00239773 0.0024743811 0.0023515692 0.0013455641
0.0022302675 0.0024862138 0.0024048127 0.0024831682
00000000: 8220 223b 6e1b 103b adba 223b cdcc 213b
00000010: 3b14 11bb bb3d 113b bbe4 223b 0033 003b
00000020: 29e7 1a3b e4b6 233b 8450 223b 4af3 213b
00000030: 1a0e 223b e1fd 1f3b d975 ca3b 4758 1f3b
00000040: d89c 203b 5387 223c 73e7 223b f3d2 213b
00000050: 3c23 1dbb 3a29 223b c91c 1a3b a45d b03a
00000060: ae29 123b bfef 223b 109a 1d3b a6bc 223b

blocks.5.1.se.conv_reduce.bias f4 [48]
0.0749543 0.07116609 0.049517576 0.07463745 -0.017117588 0.016094062 0.016548289 -0.024813829
0.0064621945 -0.039052848 -0.064769536 0.00919803 -0.051669274 0.055263914 0.032424763 0.18360017
0.026193641 0.0020376875 0.064382136 0.049041856 -0.050460435 0.44170678 0.0065807654 0.1236272
0.09468768 0.018589284 0.07990406 -0.028861484 -0.09393485 0.05728379 0.06702509 0.00633557
0.1868704 0.05021257 0.024646478 0.047875173 0.040264994 0.032303926 0.18275636 -0.00348943
0.14457636 0.038027443 0.04890716 0.03231 0.052968256 -0.0032232455 0.09029651 0.13825887
00000000: a481 993d 87bf 913d f1d2 4a3d 85db 983d
00000010: 2f3a 8cbc b2d7 833c 4790 873c 5f46 cbbc
00000020: d1c0 d33b e1f5 1fbd e4a5 84bd 56b3 163c
00000030: 29a3 53bd 6a5c 623d d4cf 043d af01 3c3e
00000040: 0c94 d63c b98a 053b c8da 833d 1de0 483d
00000050: 9aaf 4ebd 6427 e23e 76a3 d73b 4230 fd3d
00000060: 9deb c13d 8e48 983c bda4 a33d eb6e ecbc
00000070: ea60 c0bd 68a2 6a3d 7344 893d 9d9a cf3b
00000080: f45a 3f3e b2ab 4d3d 69e7 c93c c218 443d
00000090: e8ec 243d 1f51 043d 7c24 3b3e ecae 64bb
000000a0: d30b 143e aac2 1b3d e052 483d 7e57 043d
000000b0: 3ef5 583d 163d 53bb 60ed b83d bc93 0d3e

blocks.5.2.se.conv_reduce.bias f4 [48]
0.004469179 0.11814105 0.036549423 0.06490825 0.004739118 -0.016985627 0.09793023 0.022884792
0.029824466 0.07069943 -0.008195881 0.106111646 0.29916778 0.10766569 0.04277166 0.24800694
0.04936327 0.0673938 0.13605759 0.031045847 0.087865375 0.08398282 0.4171263 0.06535651
0.04305638 0.010046225 0.007715434 0.022196712 0.038654186 0.20176274 0.050068464 0.0522839
0.08132555 -0.007951756 0.09917325 0.063138165 0.076738514 0.0242533 0.053482648 0.108354375
0.073090374 0.1284346 0.010534216 0.077872574 0.12022773 0.10488265 -0.024949541 0.10766379
00000000: 3172 923b eff3 f13d d9b4 153d 9eee 843d
00000010: 9a4a 9b3b 7125 8bbc a58f c83d e378 bb3c
00000020: 7052 f43c ddca 903d 0448 06bc 1051 d93d
00000030: 852c 993e d47f dc3d 5631 2f3d 88f5 7d3e
00000040: 2431 4a3d c305 8a3d ae52 0b3e dc53 fe3c
00000050: c3f2 b33d 2fff ab3d 9491 d53e a2d9 853d
00000060: e35b 303d ec98 243c c0d1 fc3b e1d5 b53c
00000070: da53 1e3d e49a 4e3e 9714 4d3d a527 563d
00000080: 038e a63d 1548 02bc 581b cb3d 954e 813d
00000090: 1529 9d3d dbae c63c 9f10 5b3d e6e8 dd3d
000000a0: 68b0 953d 5c84 033e b497 2c3c a87b 9f3d
000000b0: f539 f63d b7cc d63d fb62 ccbc d57e dc3d

blocks.5.3.se.conv_reduce.bias f4 [48]
0.08172174 0.11698228 0.18214305 0.000616225 0.065077364 0.038999908 0.115483336 -0.015082851
0.073415175 0.113867395 0.3714301 0.14760947 0.015330946 0.041727502 0.058910742 0.07165121
0.038242713 0.03858946 0.12240378 0.029385773 0.08043984 0.091715455 0.05881543 -0.065515704
0.6892047 0.021383911 0.018276434 0.10607324 -0.040844016 0.045685586 0.061016865 0.08353254
0.17945711 0.042617038 0.058841307 -0.04263752 0.014038993 -0.011870401 -0.016524136 0.17943385
0.23395665 -0.015103265 0.09173024 0.05860418 0.06480337 0.33630127 -0.030975347 0.129823
00000000: ba5d a73d 6894 ef3d b583 3a3e 298a 213a
00000010: 4847 853d 5ebe 1f3d 8782 ec3d 101e 77bc
00000020: b25a 963d 4f33 e93d 162c be3e f026 173e
00000030: a62e 7b3c 75ea 2a3d 644c 713d dfbd 923d
00000040: 64a4 1c3d fb0f 1e3d d5ae fa3d 6fba f03c
00000050: a5bd a43d 50d5 bb3d 73e8 703d 192d 86bd
00000060: b86f 303f 502d af3c 76b8 953c ed3c d93d
00000070: 0e4c 27bd cf20 3b3d d2ec 793d 1c13 ab3d
00000080: 9bc3 373e 348f 2e3d 9503 713d aea4 2ebd
00000090: ce03 663c 127c 42bc a05d 87bc 82bd 373e
000000a0: 5592 6f3e af73 77bc 10dd bb3d f00a 703d
000000b0: a1b7 843d ae2f ac3e 03c0 fdbc 52f0 043e

blocks.6.0.se.conv_reduce.bias f4 [48]
-0.2621941 -0.20837268 0.0046898653 -0.11537074 -0.33581632 -0.19552474 -0.10388705 -0.27015007
-0.20319076 -0.14490499 -0.15534236 -0.29169363 -0.17796646 -0.1903552 -0.27489227 -0.20590238
-0.21931888 -0.013156642 -0.19415416 -0.28603178 -0.26427165 -0.23308161 -0.0452447 -0.19612545
-0.19200929 -0.057073593 0.042128257 -0.12995185 -0.11452584 -0.024697004 -0.21478152 -0.12409821
-0.3006622 -0.21905532 -0.28598204 -0.15262772 -0.20057966 -0.09021887 0.8263371 -0.28986603
-0.30465138 -0.11203166 -0.14842679 -0.24124213 -0.0027209702 -0.10526489 -0.1133341 -0.04365818
00000000: 4e3e 86be a65f 55be 71ad 993b 7f47 ecbd
00000010: 1ef0 abbe a337 48be bcc2 d4bd 1c51 8abe
00000020: 3d11 50be f961 14be 1112 1fbe de58 95be
00000030: d73c 36be 79ec 42be aebe 8cbe 13d8 52be
00000040: 2195 60be f58e 57bc 59d0 46be c272 92be
00000050: 9d4e 87be f2ac 6ebe 8252 39bd 1cd5 48be
00000060: 159e 44be 00c6 69bd ae8e 2c3d 1912 05be
00000070: 868c eabd 5f51 cabc b0ef 5bbe 3427 febd
00000080: 65f0 99be 0a50 60be 3d6c 92be 714a 1cbe
00000090: c164 4dbe acc4 b8bd d48a 533f 5269 94be
000000a0: 44fb 9bbe db70 e5bd 31fd 17be 2d08 77be
000000b0: 4e52 32bb 1e95 d7bd b51b e8bd ebd2 32bd

classifier.bias f4 [5]
0.002223538 -0.0016685926 0.0014930007 0.00045258028 -0.0033243427
00000000: c7b8 113b adb4 daba cab0 c33a 4c48 ed39
00000010: 37dd 59bb

conv_stem.weight_bias f4 [32]
4.588313 1.9412186 2.5978997 2.3736594 1.3231795 14.425244 -9.517519 -6.4203677
4.7695312 1.453016 1.4673109 -1.2049332 1.6487317 3.5909479 1.8110368 2.0478387
-0.3177004 -0.49322772 -0.091850996 17.972275 -14.809462 2.9754462 15.413146 4.887795
2.3343906 3.450212 2.0105352 -11.141364 -0.24252057 4.548438 6.561072 2.2185414
00000000: 76d3 9240 da79 f83f fd43 2640 09ea 1740
00000010: f25d a93f cdcd 6641 c247 18c1 a773 cdc0
00000020: 00a0 9840 6efc b93f d8d0 bb3f 403b 9abf
00000030: a409 d33f 17d2 6540 0ed0 e73f ca0f 0340
00000040: a0a9 a2be 5888 fcbe 601c bcbd 38c7 8f41
00000050: 8ef3 6cc1 b66d 3e40 3f9c 7641 d168 9c40
00000060: a866 1540 46d0 5c40 9cac 0040 0743 32c1
00000070: 5057 78be ce8c 9140 4df4 d140 95fc 0d40

blocks.0.0.conv_dw.weight_bias f4 [32]
3.2942977 7.665173 -0.8075011 15.11447 18.235373 2.4600194 1.7507472 14.467953
23.521416 22.727459 3.9543188 7.7410727 1.9644163 5.9281073 0.05603528 -2.0038643
1.4633616 3.1079996 3.5549579 2.2368586 9.150931 25.710968 2.890816 2.203505
-0.6668744 1.1135232 14.807295 -0.70612776 0.2235806 0.41962242 -2.4522884 13.25074
00000000: c6d5 5240 1949 f540 64b8 4ebf ded4 7141
00000010: 0be2 9141 f570 1d40 7c18 e03f bc7c 6741
00000020: dc2b bc41 d6d1 b541 8f13 7d40 deb6 f740
00000030: fe71 fb3f 0eb3 bd40 4085 653d 503f 00c0
00000040: 6f4f bb3f 77e9 4640 6e84 6340 b128 0f40
00000050: 376a 1241 10b0 cd41 2103 3940 3a06 0d40
00000060: 48b8 2abf ee87 8e3f aeea 6c41 cac4 34bf
00000070: 50f2 643e c0d8 d63e 4bf2 1cc0 0803 5441

blocks.0.0.conv_pw.weight_bias f4 [16]
-137.01903 45.53255 -6.724019 145.33154 -14.812567 -15.508407 -58.918594 -41.67656
65.244194 -9.305367 -17.42272 48.55899 -6.452617 -42.11573 4.99113 -5.021365
00000000: df04 09c3 5521 3642 2a2b d7c0 e054 1143
00000010: 4600 6dc1 6f22 78c1 a4ac 6bc2 ccb4 26c2
00000020: 077d 8242 c9e2 14c1 bb61 8bc1 683c 4242
00000030: d77b cec0 8276 28c2 56b7 9f40 06af a0c0

blocks.1.0.conv_pwl.weight_bias f4 [24]
13.20539 14.455556 -10.848396 8.614406 -28.249018 -40.1091 9.511744 -31.229166
-15.793721 4.9960027 21.929539 -19.708763 27.19226 -14.966889 -23.971203 -20.33781
-7.1579695 12.811127 22.584211 -8.437647 2.5299907 9.157437 -15.534983 -9.254581
00000000: 4749 5341 f549 6741 0893 2dc1 9bd4 0941
00000010: fdfd e1c1 b86f 20c2 1a30 1841 55d5 f9c1
00000020: 15b3 7cc1 41df 9f40 b26f af41 8cab 9dc1
00000030: c089 d941 6178 6fc1 06c5 bfc1 d6b3 a2c1
00000040: 160e e5c0 60fa 4c41 77ac b441 9a00 07c1
00000050: 5eeb 2140 dd84 1241 4a8f 78c1 c412 14c1

blocks.1.1.conv_pwl.weight_bias f4 [24]
-5.9192395 -3.9811249 4.157476 -5.30417 0.13607478 -7.3177958 5.522496 1.4502366
49.167664 -0.59649706 10.511836 2.1526036 0.21266603 2.9430156 3.9126074 -13.414076
5.9241843 2.4420419 -1.0442438 -5.6861267 8.679797 -0.6785713 -0.47726655 11.213518
00000000: 696a bdc0 c0ca 7ec0 0b0a 8540 c3bb a9c0
00000010: 3057 0b3e 622b eac0 4ab8 b040 5aa1 b93f
00000020: b0ab 4442 08b4 18bf 7b30 2841 42c4 0940
00000030: 20c5 593e 5e5a 3c40 2968 7a40 0ea0 56c1
00000040: eb92 bd40 6a4a 1c40 c8a9 85bf c0f4 b5c0
00000050: 73e0 0a41 d9b6 2dbf 485c f4be 926a 3341

blocks.2.0.conv_pwl.weight_bias f4 [40]
5.3378 16.638153 -2.951251 41.321907 20.785929 -32.51417 8.875632 14.287309
5.1382575 28.254288 37.213074 -15.459692 -10.928687 8.508684 3.1952116 -19.220201
-11.276722 -7.6516457 -18.602516 16.99483 -23.56126 14.164447 -26.356155 -10.7703495
10.806047 -75.73582 -16.917435 1.8173549 23.060968 -9.626469 -32.055458 8.816537
-26.451817 -32.22784 -34.423252 10.357002 -9.814884 23.716938 -21.221025 -9.636867
00000000: 42cf aa40 f01a 8541 4ce1 3cc0 a249 2542
00000010: 9549 a641 830e 02c2 9702 0e41 d198 6441
00000020: 9b6c a440 c808 e241 30da 1442 e65a 77c1
00000030: e7db 2ec1 9223 0841 597e 4c40 f9c2 99c1
00000040: 746d 34c1 48da f4c0 f4d1 94c1 69f5 8741
00000050: 767d bcc1 93a1 6241 68d9 d2c1 5a53 2cc1
00000060: 92e5 2c41 bd78 97c2 e856 87c1 169f e83f
00000070: dd7c b841 0406 1ac1 ca38 00c2 8910 0d41
00000080: 529d d3c1 4fe9 00c2 69b1 09c2 48b6 2541
00000090: c409 1dc1 4abc bd41 a9c4 a9c1 9b30 1ac1

blocks.2.1.conv_pwl.weight_bias f4 [40]
2.4964309 -0.9797742 0.32059765 -19.001854 1.7035942 1.2009368 3.6971998 -1.441011
1.3620733 3.3999982 -2.890668 0.73553026 0.56050307 -0.72157943 1.9972506 0.79390144
-0.78018254 -2.5013065 0.93748796 -4.0691705 -3.251499 0.7147819 2.602354 -0.5900029
-3.5835333 -7.874689 -3.3289862 1.9686031 2.7364762 -6.3813257 1.3018456 -1.2709453
-1.281399 -2.4874249 2.2583916 -0.4327519 1.4956276 2.9778905 1.9857275 1.609999
00000000: 86c5 1f40 7bd2 7abf 6025 a43e cc03 98c1
00000010: 600f da3f 4cb8 993f ec9e 6c40 0c73 b8bf
00000020: 6b58 ae3f 9299 5940 b400 39c0 b64b 3c3f
00000030: 217d 0f3f 6eb9 38bf e8a5 ff3f 203d 4b3f
00000040: 0bba 47bf 6815 20c0 36ff 6f3f a536 82c0
00000050: 8f18 50c0 f2fb 363f f88c 2640 6e0a 17bf
00000060: 9c58 65c0 74fd fbc0 1c0e 55c0 30fb fb3f
00000070: 6d22 2f40 d233 ccc0 e0a2 a63f 56ae a2bf
00000080: e204 a4bf f831 1fc0 7d89 1040 a891 ddbe
00000090: ba70 bf3f c295 3e40 522c fe3f 7214 ce3f
